…
                    modality=low_dim
                    randomizer=ModuleList(
                      (0): None
                    )
                    net=None
                    sharing_from=None
                )
                output_shape=[917]
            )
        )
  
        transformer=GPT_Backbone(
          (activation): GELU(approximate='none')
          (nets): ModuleDict(
            (transformer): Sequential(
              (0): SelfAttentionBlock(
                (nets): ModuleDict(
                  (attention): CausalSelfAttention(
                    (nets): ModuleDict(
                      (qkv): Linear(in_features=256, out_features=768, bias=False)
                      (attn_dropout): Dropout(p=0.1, inplace=False)
                      (output_dropout): Dropout(p=0.1, inplace=False)
                      (output): Linear(in_features=256, out_features=256, bias=True)
                    )
                  )
                  (mlp): Sequential(
                    (0): Linear(in_features=256, out_features=1024, bias=True)
                    (1): GELU(approximate='none')
                    (2): Linear(in_features=1024, out_features=256, bias=True)
                    (3): Dropout(p=0.1, inplace=False)
                  )
                  (ln1): LayerNorm((256,), eps=1e-05, elementwise_affine=True)
                  (ln2): LayerNorm((256,), eps=1e-05, elementwise_affine=True)
                )
              )
              (1): SelfAttentionBlock(
                (nets): ModuleDict(
                  (attention): CausalSelfAttention(
                    (nets): ModuleDict(
                      (qkv): Linear(in_features=256, out_features=768, bias=False)
                      (attn_dropout): Dropout(p=0.1, inplace=False)
                      (output_dropout): Dropout(p=0.1, inplace=False)
                      (output): Linear(in_features=256, out_features=256, bias=True)
                    )
                  )
                  (mlp): Sequential(
                    (0): Linear(in_features=256, out_features=1024, bias=True)
                    (1): GELU(approximate='none')
                    (2): Linear(in_features=1024, out_features=256, bias=True)
                    (3): Dropout(p=0.1, inplace=False)
                  )
                  (ln1): LayerNorm((256,), eps=1e-05, elementwise_affine=True)
                  (ln2): LayerNorm((256,), eps=1e-05, elementwise_affine=True)
                )
              )
              (2): SelfAttentionBlock(
                (nets): ModuleDict(
                  (attention): CausalSelfAttention(
                    (nets): ModuleDict(
                      (qkv): Linear(in_features=256, out_features=768, bias=False)
                      (attn_dropout): Dropout(p=0.1, inplace=False)
                      (output_dropout): Dropout(p=0.1, inplace=False)
                      (output): Linear(in_features=256, out_features=256, bias=True)
                    )
                  )
                  (mlp): Sequential(
                    (0): Linear(in_features=256, out_features=1024, bias=True)
                    (1): GELU(approximate='none')
                    (2): Linear(in_features=1024, out_features=256, bias=True)
                    (3): Dropout(p=0.1, inplace=False)
                  )
                  (ln1): LayerNorm((256,), eps=1e-05, elementwise_affine=True)
                  (ln2): LayerNorm((256,), eps=1e-05, elementwise_affine=True)
                )
              )
              (3): SelfAttentionBlock(
                (nets): ModuleDict(
                  (attention): CausalSelfAttention(
                    (nets): ModuleDict(
                      (qkv): Linear(in_features=256, out_features=768, bias=False)
                      (attn_dropout): Dropout(p=0.1, inplace=False)
                      (output_dropout): Dropout(p=0.1, inplace=False)
                      (output): Linear(in_features=256, out_features=256, bias=True)
                    )
                  )
                  (mlp): Sequential(
                    (0): Linear(in_features=256, out_features=1024, bias=True)
                    (1): GELU(approximate='none')
                    (2): Linear(in_features=1024, out_features=256, bias=True)
                    (3): Dropout(p=0.1, inplace=False)
                  )
                  (ln1): LayerNorm((256,), eps=1e-05, elementwise_affine=True)
                  (ln2): LayerNorm((256,), eps=1e-05, elementwise_affine=True)
                )
              )
              (4): SelfAttentionBlock(
                (nets): ModuleDict(
                  (attention): CausalSelfAttention(
                    (nets): ModuleDict(
                      (qkv): Linear(in_features=256, out_features=768, bias=False)
                      (attn_dropout): Dropout(p=0.1, inplace=False)
                      (output_dropout): Dropout(p=0.1, inplace=False)
                      (output): Linear(in_features=256, out_features=256, bias=True)
                    )
                  )
                  (mlp): Sequential(
                    (0): Linear(in_features=256, out_features=1024, bias=True)
                    (1): GELU(approximate='none')
                    (2): Linear(in_features=1024, out_features=256, bias=True)
                    (3): Dropout(p=0.1, inplace=False)
                  )
                  (ln1): LayerNorm((256,), eps=1e-05, elementwise_affine=True)
                  (ln2): LayerNorm((256,), eps=1e-05, elementwise_affine=True)
                )
              )
              (5): SelfAttentionBlock(
                (nets): ModuleDict(
                  (attention): CausalSelfAttention(
                    (nets): ModuleDict(
                      (qkv): Linear(in_features=256, out_features=768, bias=False)
                      (attn_dropout): Dropout(p=0.1, inplace=False)
                      (output_dropout): Dropout(p=0.1, inplace=False)
                      (output): Linear(in_features=256, out_features=256, bias=True)
                    )
                  )
                  (mlp): Sequential(
                    (0): Linear(in_features=256, out_features=1024, bias=True)
                    (1): GELU(approximate='none')
                    (2): Linear(in_features=1024, out_features=256, bias=True)
                    (3): Dropout(p=0.1, inplace=False)
                  )
                  (ln1): LayerNorm((256,), eps=1e-05, elementwise_affine=True)
                  (ln2): LayerNorm((256,), eps=1e-05, elementwise_affine=True)
                )
              )
              (6): SelfAttentionBlock(
                (nets): ModuleDict(
                  (attention): CausalSelfAttention(
                    (nets): ModuleDict(
                      (qkv): Linear(in_features=256, out_features=768, bias=False)
                      (attn_dropout): Dropout(p=0.1, inplace=False)
                      (output_dropout): Dropout(p=0.1, inplace=False)
                      (output): Linear(in_features=256, out_features=256, bias=True)
                    )
                  )
                  (mlp): Sequential(
                    (0): Linear(in_features=256, out_features=1024, bias=True)
                    (1): GELU(approximate='none')
                    (2): Linear(in_features=1024, out_features=256, bias=True)
                    (3): Dropout(p=0.1, inplace=False)
                  )
                  (ln1): LayerNorm((256,), eps=1e-05, elementwise_affine=True)
                  (ln2): LayerNorm((256,), eps=1e-05, elementwise_affine=True)
                )
              )
              (7): SelfAttentionBlock(
                (nets): ModuleDict(
                  (attention): CausalSelfAttention(
                    (nets): ModuleDict(
                      (qkv): Linear(in_features=256, out_features=768, bias=False)
                      (attn_dropout): Dropout(p=0.1, inplace=False)
                      (output_dropout): Dropout(p=0.1, inplace=False)
                      (output): Linear(in_features=256, out_features=256, bias=True)
                    )
                  )
                  (mlp): Sequential(
                    (0): Linear(in_features=256, out_features=1024, bias=True)
                    (1): GELU(approximate='none')
                    (2): Linear(in_features=1024, out_features=256, bias=True)
                    (3): Dropout(p=0.1, inplace=False)
                  )
                  (ln1): LayerNorm((256,), eps=1e-05, elementwise_affine=True)
                  (ln2): LayerNorm((256,), eps=1e-05, elementwise_affine=True)
                )
              )
            )
            (output_ln): LayerNorm((256,), eps=1e-05, elementwise_affine=True)
          )
        )
  
        decoder=ObservationDecoder(
            Key(
                name=mean
                shape=(5, 7)
                modality=low_dim
                net=(Linear(in_features=256, out_features=35, bias=True))
            )
            Key(
                name=scale
                shape=(5, 7)
                modality=low_dim
…
